Week9-API/app/model.pt (torch, 8948 bytes, 3 tensors)

weight f4 [100, 1]
000000 90 f8 3b be 00 23 96 bc a3 55 25 3f a0 61 9d be
       -0.18356538 -0.018327236 0.64583796 -0.30738544
000010 08 d5 11 be b0 07 2b bf bf 9c 6f 3f 0c 5f 99 be
       -0.14241421 -0.66808605 0.9359855 -0.29955328
000020 f4 0c f0 be 6c 2a 61 bf 8b 4e 27 3f b0 15 bc 3e
       -0.46884882 -0.87955356 0.6535422 0.36735296
000030 f7 05 55 3f 31 e4 07 3f 8e 5e 73 bd 02 4a 43 bf
       0.83212227 0.5308257 -0.059416346 -0.762848
000040 24 a6 50 bf 82 02 1f bf b5 8f 0f bf 20 68 f7 3d
       -0.8150351 -0.621132 -0.56078655 0.12080407
000050 80 87 ac be 02 e3 3c bf 40 9c a3 bd f8 67 db be
       -0.33697128 -0.73783886 -0.07988787 -0.4285276
000060 70 48 c4 bd 90 13 ef be 5c 83 01 3f fd 08 3e 3f
       -0.09584129 -0.46694613 0.50591063 0.74232465
000070 e0 9f d8 3e 7a 55 29 3f 52 a8 26 bf 46 60 f5 be
       0.42309475 0.6614605 -0.65100586 -0.47925013
000080 60 83 dc 3e 00 43 d2 3d 30 56 bc be c0 be 00 3f
       0.4306898 0.102666855 -0.36784506 0.5029106
000090 9e b0 2d bf 53 9f 37 bf 98 49 b6 3e 03 e2 49 be
       -0.6784762 -0.71727484 0.35603023 -0.19715123
0000a0 6c 52 e7 3e 46 f7 32 bf ea 90 7a 3f b0 b6 2b bf
       0.4518007 -0.6990856 0.9787737 -0.67075634
0000b0 00 b1 58 3e 42 d3 67 bf cd a6 c6 be 5b be 01 3e
       0.2116127 -0.9055673 -0.38799134 0.12670271
0000c0 80 39 c2 bd 70 87 0a 3f 40 46 89 bd 74 98 b5 3e
       -0.094836235 0.5411291 -0.06702852 0.35467875
0000d0 98 9d 09 bf 26 e2 51 3f c7 bd 84 3f 49 55 13 be
       -0.53756094 0.819857 1.0370415 -0.14388002
0000e0 86 57 9b 3f 4b 81 47 3f 58 c6 d3 3e 30 f8 7e 3e
       1.2136085 0.7793166 0.41362262 0.24899364
0000f0 a4 a3 b0 be ed 38 1e 3e dc 74 9e be 4e 59 56 3f
       -0.34499848 0.15451403 -0.30948532 0.8373002
000100 f3 6d d3 bd 28 ab d2 3e e4 7c 86 be e8 a8 11 bf
       -0.103237055 0.41146207 -0.2626716 -0.56898355
000110 58 d6 3b be b0 23 eb be 20 ab 47 bf fe 49 16 bf
       -0.18343484 -0.45925665 -0.7799549 -0.58706653
000120 fe a5 0c 3f 00 30 0a 3b 00 0d 2f bd 07 6a 70 bf
       0.54940784 0.002108574 -0.042737007 -0.93911785
000130 f9 b1 cd be 01 a2 29 3f ae 15 73 3f 7f 75 14 bd
       -0.40174845 0.66262823 0.94954956 -0.036244866
000140 d0 91 35 be 49 50 14 bf 84 98 6c bf 3d 4d ed 3e
       -0.17731404 -0.57935005 -0.9242022 0.4634799
000150 d1 6b bf 3e 9c 66 ea 3e 03 35 56 3f 66 b0 44 bf
       0.37386945 0.4578141 0.8367464 -0.7683166
000160 32 3f 68 3f 2e 79 8c 3f 7a a7 1a bf 4c 6b c5 be
       0.9072143 1.0974481 -0.604118 -0.38558424
000170 5a 00 66 bf a5 20 98 be 70 5b 5b 3f 0b 5a a6 3f
       -0.89844286 -0.29712406 0.856864 1.2996229
000180 4d 8e b4 be 80 9d 01 bd 08 42 65 3f a9 71 43 3f
       -0.35264817 -0.031644344 0.8955388 0.76345307

bias f4 [100]
000000 08 cd 3a be d2 a4 72 bf 87 ef e4 3e b8 b2 7e be
       -0.18242276 -0.94782746 0.44713995 -0.24872863
000010 5c f7 7e bf e1 1c 2d 3f f5 87 00 bf 00 07 fb bb
       -0.9959619 0.6762219 -0.50207454 -0.0076607466
000020 d4 ba 34 bf b5 a7 60 3f 9c 57 1b bf 62 8e 21 bf
       -0.7059758 0.877559 -0.60680556 -0.63107884
000030 ba c4 04 3e 74 fa 03 bf b5 ab d3 3e e0 40 35 bd
       0.1296567 -0.51554036 0.4134194 -0.044251323
000040 c0 62 4a be 9c 20 ec be 3e 3c 0f 3f b8 a4 95 be
       -0.19764233 -0.4611863 0.559513 -0.29227233
000050 b0 af 0a bf dc 0f 83 be 9a 06 68 bf 18 a7 e5 be
       -0.5417433 -0.25598037 -0.90635073 -0.44854045
000060 20 7a 26 bd 86 35 33 bf a0 a8 65 bf ff b4 82 be
       -0.04064381 -0.70003545 -0.89710426 -0.25528714
000070 4c 2d 6b bf 66 64 62 bf 4c 48 26 3f 96 e6 45 3f
       -0.9186599 -0.88434446 0.64954066 0.7730497
000080 ec 87 59 bf f6 80 1b bf 40 19 27 3f 54 31 71 bf
       -0.84973025 -0.60743654 0.65272903 -0.94215894
000090 c0 ef f2 be b3 4c b9 3d ac 38 23 bf 9d ff e1 39
       -0.4744854 0.09047832 -0.6375835 0.0004310579
0000a0 62 94 14 bf aa f3 39 bf 82 da 7a bf 28 5e 6b be
       -0.58038914 -0.72637427 -0.97989666 -0.22985137
0000b0 b4 f8 7a 3f 96 4d 67 3f 56 4c e9 3e 8c bb 01 be
       0.9803574 0.9035276 0.45566052 -0.126692
0000c0 b3 7c 70 3f 02 08 79 bf 92 13 11 bf b4 ac ef be
       0.93940276 -0.97277844 -0.56670487 -0.4681145
0000d0 de 4d 09 3f be cd 61 3f 37 10 da be af 13 92 3e
       0.5363444 0.8820456 -0.42590496 0.28530642
0000e0 a1 35 f9 be 3f 6d 84 be 94 51 74 bf a4 ca dc be
       -0.48673728 -0.25864598 -0.9543698 -0.43123353
0000f0 b0 77 4d bf 78 35 1e be fc ca ab be cb 91 22 3e
       -0.80260754 -0.15450084 -0.33553302 0.15875928
000100 3a ca cf 3e d2 45 21 3e 00 7c 11 bc 38 b4 61 bf
       0.40583974 0.1574929 -0.008879662 -0.88165617
000110 7a d6 39 bf 38 7f 2e bf 0b 2e 47 3f 9e 7a 7e 3d
       -0.7259289 -0.6816287 0.7780463 0.062128656
000120 10 08 73 3f 68 32 f6 be 4c 99 b4 be 11 37 2e 3e
       0.9493418 -0.48085332 -0.35273206 0.17013194
000130 b0 ef e0 3e f6 a5 de bd d2 20 65 3e 89 6c 1d 3f
       0.43932867 -0.10871498 0.22375801 0.61493737
000140 68 33 46 be f2 f7 37 3f e4 fd d1 be 38 e4 73 3e
       -0.19355547 0.7186271 -0.41014016 0.23817527
000150 45 1b 61 3f 2c e7 64 bf c5 a3 83 3e 1a 24 67 3e
       0.87932235 -0.8941524 0.25710884 0.22572365
000160 ee 25 39 bf 94 16 0b bf ad 4e 1a 3f a6 c0 46 bf
       -0.723235 -0.54331326 0.602763 -0.7763771
000170 ab 96 78 3e bf 78 92 3e 08 ed 58 3f 0f 96 10 bf
       0.24276225 0.28607747 0.8473668 -0.5647897
000180 f9 f1 81 3f d6 7e 7f bf 72 c0 cf 3e 90 67 c5 3e
       1.0151969 -0.9980291 0.40576512 0.38555574

weight f4 [1, 100]
000000 00 19 8d 3c eb 99 b1 bd c2 ea a8 3e 50 ea 15 bd
       0.017223835 -0.08671936 0.32991606 -0.03660041
000010 10 54 b0 bd 82 48 1e bf 38 5d fb 3e 2a d7 25 bd
       -0.08609784 -0.6182939 0.49094558 -0.0404884
000020 97 92 c1 3d e5 0c 34 bf 64 26 28 3d b0 6f b8 3b
       0.09451788 -0.70332175 0.041052237 0.0056285486
000030 11 fe 14 3f 40 95 2b bd e4 b7 b2 bd b3 e4 c6 bd
       0.58200175 -0.041890383 -0.087264806 -0.0971159
000040 1f b8 a5 3d 8b 34 ba bd da 98 de be 9e 5a 90 bd
       0.08091759 -0.09092053 -0.4347599 -0.07048534
000050 8a 6d 4d 3d c6 63 5a 3d 80 e4 1b 3c ac b2 b4 bc
       0.050153293 0.053317808 0.009514928 -0.022057854
000060 10 7c 2e bc de 98 7b 3d 9b f6 b5 bd 50 87 ec 3e
       -0.010649696 0.061425082 -0.08884927 0.46196985
000070 8d a5 29 bd 88 ed c7 bc 2d 26 15 bf e1 f9 eb be
       -0.041417647 -0.024405256 -0.58261377 -0.4608908
000080 25 87 c8 bd a0 20 10 3b a3 3d 9c be f5 e0 8c bd
       -0.09791402 0.0021992102 -0.30515775 -0.06878845
000090 27 37 c1 bd 4d 14 ac bd 1a ec 28 bd a8 77 42 bd
       -0.094343476 -0.084023096 -0.04124079 -0.047477394
0000a0 cf 6d bd bd e2 46 6b 3d 00 a0 a4 b8 fe 98 17 3d
       -0.0924946 0.057440646 -7.849932e-05 0.03701114
0000b0 27 3d 85 bd 7a 3e 4d bf b0 9b c9 be b5 16 a3 bd
       -0.065058045 -0.80173457 -0.39376593 -0.079633154
0000c0 08 36 5a be b7 30 8b 3d f9 6f 97 3d 64 ac db 3c
       -0.21309674 0.06796401 0.07394404 0.0268156
0000d0 71 2f e4 be 03 1b ae 3e 6a df 28 3f 24 8b ad bd
       -0.44567445 0.34004983 0.659659 -0.084738046
0000e0 64 89 5c 3f 57 9e 01 3f 0e 06 17 3d dd 84 38 bd
       0.8614714 0.5063223 0.03687101 -0.045048583
0000f0 e9 a4 93 3d ff 5f ae bd 7a 50 7c bd 2a e6 f9 3e
       0.072091885 -0.085144036 -0.061600186 0.48808414
000100 5f 22 41 be ca 74 51 3e 6e ec 51 3d fa 6b 3a 3d
       -0.18860768 0.20454708 0.051250868 0.04551313
000110 8a 7f 21 bd 80 d2 1f ba f1 c0 d6 be 05 48 c0 bd
       -0.03942827 -0.00060967356 -0.41944078 -0.09388737
000120 bf a5 23 3e c6 14 42 3d 1c 45 e1 3c 81 dc 80 bd
       0.15981196 0.047383092 0.027498774 -0.06292058
000130 eb 85 b7 be 5f 3b d1 3e b9 d9 08 3f bf dc 22 be
       -0.3584436 0.4086561 0.5345722 -0.1590452
000140 2d 4f 89 3d cf cb de be 98 81 16 bc fc fc 74 3e
       0.06704555 -0.4351487 -0.009186171 0.23924631
000150 52 2d e4 3d 20 d4 a3 3b 83 20 e9 3e 6f d9 a6 bc
       0.11141457 0.0049996525 0.45532617 -0.020367352
000160 1f 80 b3 3d 2b d8 4d 3f 59 de 12 bf 1b 40 b1 bd
       0.087646715 0.8040797 -0.57370526 -0.08654805
000170 e2 da 4c 3c f6 b2 bc bd 9b 6e cb 3e a0 65 78 3f
       0.012503358 -0.092138216 0.39732823 0.9703007
000180 e8 09 d4 be d4 5f ae 3c 81 8a 06 3f 25 4d e6 3e
       -0.41413808 0.021285929 0.5255509 0.44980732
